tutorials/medium_article/GKP_params.npz (npz, 1150 bytes, 2 tensors)

phis f4 [10]
00000000: 0000 0000 1310 c93f 3a10 c9bf 0f12 c9bf
00000010: d710 c9bf 200d c93f df0f c9bf f50c c93f
00000020: bf0d c9bf f826 42b8
0.0 1.570803 -1.5708077 -1.5708636 -1.5708264 1.570713 -1.5707968 1.5707079
-1.570732 -4.6289497e-05

thetas f4 [10]
00000000: 660f c93f 3afe 71bf 0b7f 0f40 32a3 ecbf
00000010: 0cf2 1440 60a1 98bf 0ffd 0340 ebc2 1c40
00000020: 5455 cd3f 7ccb 9640
1.5707824 -0.94528544 2.242129 -1.8487303 2.3272734 -1.1924248 2.0623205 2.4493968
1.6041665 4.7123394
